…
Loading checkpoint shards:   0%|          | 0/7 [00:00<?, ?it/s]Loading checkpoint shards:  14%|█▍        | 1/7 [00:00<00:05,  1.04it/s]Loading checkpoint shards:  29%|██▊       | 2/7 [00:01<00:04,  1.01it/s]Loading checkpoint shards:  43%|████▎     | 3/7 [00:03<00:04,  1.07s/it]Loading checkpoint shards:  57%|█████▋    | 4/7 [00:04<00:03,  1.09s/it]Loading checkpoint shards:  71%|███████▏  | 5/7 [00:05<00:02,  1.10s/it]Loading checkpoint shards:  86%|████████▌ | 6/7 [00:06<00:01,  1.13s/it]Loading checkpoint shards: 100%|██████████| 7/7 [00:07<00:00,  1.02it/s]Loading checkpoint shards: 100%|██████████| 7/7 [00:07<00:00,  1.03s/it]
DeepseekForCausalLM(
  (model): DeepseekModel(
    (embed_tokens): Embedding(102400, 2048)
    (layers): ModuleList(
      (0): DeepseekDecoderLayer(
        (self_attn): DeepseekAttention(
          (q_proj): Linear(in_features=2048, out_features=2048, bias=False)
          (k_proj): Linear(in_features=2048, out_features=2048, bias=False)
          (v_proj): Linear(in_features=2048, out_features=2048, bias=False)
          (o_proj): Linear(in_features=2048, out_features=2048, bias=False)
          (rotary_emb): DeepseekRotaryEmbedding()
        )
        (mlp): DeepseekMLP(
          (gate_proj): Linear(in_features=2048, out_features=10944, bias=False)
          (up_proj): Linear(in_features=2048, out_features=10944, bias=False)
          (down_proj): Linear(in_features=10944, out_features=2048, bias=False)
          (act_fn): SiLU()
        )
        (input_layernorm): DeepseekRMSNorm()
        (post_attention_layernorm): DeepseekRMSNorm()
      )
      (1-27): 27 x DeepseekDecoderLayer(
        (self_attn): DeepseekAttention(
          (q_proj): Linear(in_features=2048, out_features=2048, bias=False)
          (k_proj): Linear(in_features=2048, out_features=2048, bias=False)
          (v_proj): Linear(in_features=2048, out_features=2048, bias=False)
          (o_proj): Linear(in_features=2048, out_features=2048, bias=False)
          (rotary_emb): DeepseekRotaryEmbedding()
        )
        (mlp): DeepseekMoE(
          (experts): ModuleList(
            (0-63): 64 x DeepseekMLP(
              (gate_proj): Linear(in_features=2048, out_features=1408, bias=False)
              (up_proj): Linear(in_features=2048, out_features=1408, bias=False)
              (down_proj): Linear(in_features=1408, out_features=2048, bias=False)
              (act_fn): SiLU()
            )
          )
          (gate): MoEGate()
          (shared_experts): DeepseekMLP(
            (gate_proj): Linear(in_features=2048, out_features=2816, bias=False)
            (up_proj): Linear(in_features=2048, out_features=2816, bias=False)
            (down_proj): Linear(in_features=2816, out_features=2048, bias=False)
            (act_fn): SiLU()
          )
        )
        (input_layernorm): DeepseekRMSNorm()
        (post_attention_layernorm): DeepseekRMSNorm()
      )
    )
    (norm): DeepseekRMSNorm()
  )
  (lm_head): Linear(in_features=2048, out_features=102400, bias=False)
)
